my_mnist_model.pt (torch, 440471 bytes, 6 tensors)

weight f4 [128, 784]
0	0xbd2f835a	-0.042849876
1	0xbcbd646e	-0.023119178
2	0xbd0395ba	-0.032125212
3	0x3c899ba0	0.01679784
4	0xbce72b94	-0.028219022
5	0x3bbd4295	0.0057757595
6	0xbd7a0604	-0.061040893
7	0xbd582b19	-0.052775476
8	0xbd1d392d	-0.038384605
9	0xbdcced17	-0.10006159
10	0xbdfa4401	-0.12220002
11	0xbdcb6abe	-0.09932469
12	0x3ccd559d	0.025065238
13	0x3db7d89e	0.08976863
14	0x3d87be33	0.066280745
15	0x3d90dbec	0.07073197
16	0xbc2ec160	-0.010666221
17	0xbdf02c32	-0.117271796
18	0xbdc925f0	-0.09821689
19	0xbdbe435d	-0.09290192
20	0xbdc44e2e	-0.09585224
21	0xbd8b297b	-0.06795021
22	0xbbe7d0d6	-0.0070744557
23	0xbccb127c	-0.024789087
24	0x3b4eadb6	0.0031536645
25	0xbd2ce426	-0.042209767
26	0xbcc183ec	-0.023622476
27	0x3ca7538d	0.020425582
28	0xbb85cf5e	-0.004083558
29	0xbd14807d	-0.03625535
30	0xbcd3c36a	-0.025850017
31	0xbc81725a	-0.015801597
32	0xbd0e34d9	-0.03471837
33	0xbd0c3fa8	-0.034240395
34	0xbc8ba276	-0.01704524
35	0x3cba2450	0.022722393
36	0xbd35f635	-0.044424254
37	0xbd585883	-0.052818786
38	0xbd7a8849	-0.061165128
39	0xbc314ec8	-0.010822006
40	0x3d57cf23	0.052687775
41	0x3d8ae85e	0.06782602
42	0x3d918b42	0.071066394
43	0x3e0092d1	0.12556006
44	0xbc30f441	-0.010800422
45	0xbd49fa13	-0.049310755
46	0xbd8f3cad	-0.06993995
47	0xbdfe39f9	-0.12413401
48	0xbdb2dee7	-0.087339215
49	0xbd82da8a	-0.06389339
50	0xbd6fd4b1	-0.058552448
51	0xba8940bd	-0.0010471564
52	0x3cdc6e10	0.02690795
53	0x3d0c2822	0.03421796
54	0x3c51caf8	0.012804739
55	0xbcd21cbe	-0.025648471
56	0x39c9a77c	0.00038462493
57	0x3ce7e243	0.028306132
58	0x3c98b3d5	0.018640438
59	0x3c490471	0.012269125
60	0xbce36813	-0.027759587
61	0x3ce728d7	0.028217716
62	0xbd321c60	-0.04348409
63	0xbc786dee	-0.015162928
64	0xbd39e8b6	-0.045387946
65	0xbb4ff513	-0.003173177
66	0xbd20453e	-0.039128534
67	0xbd218b5a	-0.039439537
68	0xbd0d012c	-0.034424946
69	0x3d127636	0.035757266
70	0x3d38e3ae	0.045139007
71	0x3d65f86c	0.056145117
72	0x3b61a163	0.003442847
73	0xbcad01a6	-0.02111895
74	0xbd080086	-0.033203624
75	0xbd0628ec	-0.03275387
76	0xbda49145	-0.080355205
77	0xbcf35011	-0.029701265
78	0xbc8eec24	-0.017446585
79	0x3bf2f877	0.007414873
80	0x3d05aee0	0.032637477
81	0xbc5ab579	-0.0133489305
82	0xbcb18ba6	-0.021673035
83	0xbb8e3387	-0.0043396386
84	0xbcd363cb	-0.025804421
85	0x3bb856d9	0.0056255874
86	0xbca4ecb4	-0.0201324
87	0x3c819c23	0.015821522
88	0x39975b3f	0.00028868948
89	0x3bb54ce4	0.0055328477
90	0xbd8d6b1e	-0.069051966
91	0xbd0f16b0	-0.034933746
92	0xbcc67c0c	-0.024229072
93	0xbd165b3f	-0.036708113
94	0xbd1b052c	-0.03784673
95	0x3a4a0cc3	0.000770759
96	0xbc99e4a8	-0.01878579
97	0x3cfa98ff	0.030590532
98	0xbc01df5f	-0.007926791
99	0x3d883dba	0.066523984
100	0x3ce93af8	0.028470501
101	0xbd8d7c31	-0.06908453
102	0x3b459887	0.0030150728
103	0xbc865bcb	-0.016401192
104	0xbc99a258	-0.01875417
105	0xbbaa75cd	-0.005202031
106	0x3b1893f9	0.0023281558
107	0xbb69a136	-0.0035649068
108	0x3be22b98	0.0069021694
109	0x3d645f62	0.055755027
110	0xbb03c128	-0.0020104144
111	0x3c676765	0.014123772
112	0x3cdc3ed2	0.026885424
113	0x3d1c1af4	0.038111642
114	0x3ca01619	0.019541787
115	0x3c4aa5ed	0.012368661
116	0x3cc823db	0.02443116
117	0xbc424895	-0.011858125
118	0xbd52f190	-0.051499903
119	0x3c8835bf	0.01662719
120	0x3bc94a87	0.0061429176
121	0x3ce90974	0.02844689
122	0xbce9fded	-0.028563464
123	0xbd381b08	-0.044947654
124	0x3d330601	0.043706898
125	0x3baef512	0.0053392733
126	0x3d18a5d5	0.037267525
127	0x3c6974b6	0.014249017
128	0x3cfeaf30	0.031089395
129	0xbd3c7a89	-0.046015296
130	0xbd0ff837	-0.035148825
131	0xbd01a04a	-0.031647004
132	0xbcd51e13	-0.026015317
133	0xbd3eeb44	-0.046611086
134	0xbb96a78e	-0.004597611
135	0xbd405d60	-0.04696405
136	0xbc3b8af1	-0.0114467
137	0xbb698dca	-0.0035637491
138	0x3cd57de9	0.026061015
139	0xbcc8933a	-0.024484266
140	0xbb97ec5a	-0.0046363296
141	0xbc29dabc	-0.010367092
142	0xbb965a37	-0.004588391
143	0x3c2b77a0	0.010465533
144	0xbcd4f4a9	-0.02599557
145	0x3d1ced3d	0.038312186
146	0xbd544e76	-0.05183264
147	0x3cfe0c5b	0.03101175
148	0xbb826ad8	-0.003980022
149	0xbd29f328	-0.041491657
150	0x3b95842a	0.0045628743
151	0x3cdac72d	0.026706303
152	0xbacd010c	-0.0015640571
153	0x3c5144ef	0.012772783
154	0xbc857758	-0.01629226
155	0xba895143	-0.0010476488
156	0x3a6e34db	0.00090868556
157	0xbc923762	-0.017848674
158	0xbcc50a26	-0.02405269
159	0xbd13c273	-0.036074113
160	0xbd4a8f1f	-0.049452897
161	0x3ab0fd49	0.0013503219
162	0xbcbb91a8	-0.022896603
163	0xbd17e2af	-0.037081417
164	0xbd52d4da	-0.051472522
165	0x3d18e227	0.03732505
166	0x3cf32ff9	0.029685961
167	0xbc6af98b	-0.014341722
168	0x3b9a4f3c	0.0047091525
169	0x3d33c106	0.043885253
170	0x3ae9988d	0.0017821953
171	0x3ce9e6d8	0.028552458
172	0x3d724647	0.059149053
173	0xbb945e54	-0.0045278464
174	0xbd1ad904	-0.03780462
175	0x3ca613e7	0.020273162
176	0xbc402e9f	-0.011729865
177	0xbd4810b3	-0.04884405
178	0xbc48b1fd	-0.012249467
179	0x3cd5521f	0.026040135
180	0x3d01071a	0.031500913
181	0x3c216433	0.0098505495
182	0xbcc7f9ee	-0.024411168
183	0xbd6391f1	-0.055559102
184	0xbd6b1672	-0.057394452
185	0xbd4e7799	-0.050407026
186	0x3c61a375	0.013771881
187	0xbd0ec1a5	-0.034852643
188	0x3c99db25	0.018781254
189	0x3d0c4f66	0.034255408
190	0xbccd75cc	-0.025080584
191	0x3c888914	0.016666926
192	0x3c86d873	0.016460633
193	0x3be48ad9	0.0069745597
194	0xbd0f2318	-0.034945577
195	0x3cd54b84	0.026036985
196	0x3cba00fd	0.02270555
197	0xbc2ee03b	-0.010673578
198	0xbb6c96a7	-0.0036100538
199	0x3d5415bc	0.05177854
200	0x3d72ebc5	0.05930688
201	0x3d3c81f2	0.046022363
202	0xbc3a91df	-0.011387317
203	0x3ca69a35	0.020337204
204	0x3c752a6a	0.014963726
205	0xbcc0c977	-0.023533566
206	0x3c337636	0.010953477
207	0x3cee9576	0.029124003
208	0x3bed00e2	0.0072327713
209	0x3bb48d56	0.0055100126
210	0xb94cf9ef	-0.00019548064
211	0xbc8aa2c7	-0.016923321
212	0xbd76618e	-0.06015163
213	0xbcc7049a	-0.024294186
214	0xbd12ab06	-0.035807632
215	0xbdbbd272	-0.09170999
216	0xbd104496	-0.03522166
217	0x3c526fdf	0.012844055
218	0x3b370cb2	0.002793115
219	0x3b934918	0.0044947974
220	0xbc986341	-0.018602015
221	0xbccaec28	-0.024770811
222	0xbc674a6c	-0.014116865
223	0xbc543878	-0.012952916
224	0x3d18e0e4	0.037323847
225	0xbc5f99b0	-0.013647482
226	0x3d37afdf	0.044845458
227	0x3d90990b	0.07060441
228	0x3d0a8e3a	0.033827044
229	0x3cd718cf	0.026256947
230	0x3d1a661d	0.03769504
231	0xbc0d32c2	-0.008618059
232	0x3c34af1d	0.011028078
233	0x3ce276d6	0.027644556
234	0x3ca57ea2	0.020201985
235	0x3c35f714	0.011106271
236	0x3cbc0181	0.022949936
237	0x3a95733f	0.0011402144
238	0xbc15275b	-0.009103621
239	0x3d085a06	0.033288978
240	0xbce95a6d	-0.028485501
241	0xbd92137f	-0.07132625
242	0x3d0c946e	0.03432124
243	0x3b26eb7d	0.0025469952
244	0xbd5c846c	-0.053837225
245	0xbcff54e7	-0.031168414
246	0x3cb4906d	0.022041524
247	0x3d04497c	0.032296643
248	0xbbbd4f58	-0.005777281
249	0xbcd0d36f	-0.025491444
250	0xbc670fc3	-0.014102879
251	0x3bce9463	0.00630431
252	0x3b34c952	0.0027585817
253	0x3aa46013	0.0012540839
254	0x3d185514	0.03719051
255	0x3cb35cb3	0.021894788

bias f4 [128]
0	0xbcd1fd5a	-0.025633503
1	0x3cbdbcfb	0.023161402
2	0x3c8cc5d8	0.017184183
3	0xbbbc764e	-0.0057514077
4	0x3d0f83c9	0.03503779
5	0x3cb342b4	0.021882392
6	0x3d083c08	0.033260375
7	0x3cd1c632	0.025607202
8	0xbad60724	-0.0016329032
9	0xbcfca21d	-0.03083902
10	0x3be9a09a	0.007129741
11	0xbc87a338	-0.016557321
12	0xbcf2b007	-0.029624952
13	0xbc4535d1	-0.012036757
14	0x397176dd	0.00023027831
15	0x3d118bf0	0.035533845
16	0x3d06cd1a	0.032910444
17	0xbbd2422f	-0.006416581
18	0x3d23a71e	0.039954297
19	0x3b97e997	0.0046360004
20	0xbd0170a5	-0.031601567
21	0x3ce01af6	0.027356606
22	0x3d30f10c	0.04319863
23	0xbb117a34	-0.0022198083
24	0xbc0a437f	-0.008438944
25	0xba0e1441	-0.0005419888
26	0xbc2042de	-0.009781567
27	0xbd1dde0f	-0.03854185
28	0x3cd35326	0.025796484
29	0x3d01636a	0.03158895
30	0x3d135318	0.035967916
31	0x3c71fb2e	0.014769359
32	0xbc91e61f	-0.017809926
33	0xbcf0ba40	-0.029385686
34	0xbd1c6132	-0.03817863
35	0x3cb5c713	0.022189653
36	0x3c429763	0.011876914
37	0xbb9cef56	-0.0047892733
38	0x3c3f4629	0.011674442
39	0x3b7740c5	0.0037727815
40	0x3c2ce9ed	0.010553819
41	0xbc331c3f	-0.010932027
42	0x3c8d1b7b	0.017225018
43	0x3d62f176	0.055406056
44	0xbabc55e5	-0.001436886
45	0xbc0e4038	-0.008682303
46	0xbd0fbafc	-0.03509043
47	0x3d044ef9	0.032301877
48	0xbc940034	-0.018066503
49	0x3d14032c	0.036135837
50	0x3c50e439	0.012749725
51	0xbd5628d4	-0.05228503
52	0x3c8dd6db	0.017314365
53	0x3ca2f3f6	0.01989172
54	0xbbe9d2db	-0.0071357316
55	0xbcb9710a	-0.022636909
56	0xbd15ac6c	-0.036541387
57	0xbc60b676	-0.013715377
58	0x3c4342d2	0.011917787
59	0xba2bccbb	-0.00065536395
60	0x3ce9c1c9	0.028534787
61	0xbd168f94	-0.03675802
62	0xbcd9fecf	-0.02661076
63	0x3c8f5a80	0.017499208
64	0x3cdfdf85	0.027328262
65	0xbcaff454	-0.02147881
66	0x3c9d6a28	0.019215658
67	0x3b4e7087	0.0031500177
68	0x3cb87104	0.022514828
69	0xbc705d7b	-0.014670725
70	0xbd247ba9	-0.040156994
71	0xbcbd8a69	-0.023137288
72	0x3d55380a	0.052055396
73	0xbced7abd	-0.02898919
74	0x3bacf4a4	0.005278187
75	0x3c2c09bb	0.010500367
76	0xbca2b183	-0.019860035
77	0xbc106744	-0.008813683
78	0xbca467ef	-0.02006909
79	0xbba5921d	-0.0050528185
80	0x3cec8494	0.028871812
81	0x3ca7ba85	0.020474682
82	0xbb1cd37b	-0.0023929763
83	0x3c00e5e1	0.007867307
84	0x3c5c812f	0.013458534
85	0x3d23918f	0.039933737
86	0x3d0af5e3	0.033925902
87	0x3ce7fceb	0.028318843
88	0x3c4279a8	0.011869825
89	0xb98d67f4	-0.00026971067
90	0xbcb30b90	-0.0218561
91	0x3cc85fd6	0.02445976
92	0xbd3975a6	-0.045278214
93	0xbcfe1b4e	-0.03101888
94	0xbc5eb610	-0.013593212
95	0xbd023c7c	-0.031795964
96	0xbd10c177	-0.035340752
97	0x3bd8562a	0.0066020684
98	0x3d3a3449	0.04546002
99	0x3c0c2ef4	0.008556116
100	0x3d1f4fb4	0.03889437
101	0x3c65e5dc	0.0140318535
102	0x3c5dbcaa	0.013533751
103	0xbc87b5a1	-0.0165661
104	0xbbb222fc	-0.0054362994
105	0x3d01060c	0.031499907
106	0xbaca4b14	-0.0015433752
107	0x3d02e53e	0.031956904
108	0xbb8d6d9b	-0.0043160445
109	0x3d0420eb	0.032257956
110	0xbc31685b	-0.010828103
111	0xbcea2fa3	-0.028587168
112	0x3d0b3af7	0.03399178
113	0x3cc7a1a1	0.024369063
114	0xbc1e68a6	-0.009668505
115	0x3c97c54e	0.0185267
116	0xbbbb616e	-0.0057184016
117	0xbc864516	-0.016390365
118	0x3c2fc408	0.01072789
119	0xbc864e9f	-0.016394911
120	0x3c838ecc	0.016059302
121	0xbd14ec48	-0.036358148
122	0x3c0624fd	0.00818753
123	0xb9f47263	-0.0004662453
124	0x3c819500	0.015818119
125	0xbd3177f5	-0.04332729
126	0xbd00aa69	-0.031412516
127	0xbb67736d	-0.0035316602

weight f4 [64, 128]
0	0xbcdb50d3	-0.026771938
1	0x3e3033fe	0.17207333
2	0x3e4e85c3	0.20168214
3	0x3e46bdcf	0.19408344
4	0x3cfbfa92	0.03075913
5	0xbdb88dae	-0.09011398
6	0x3e312c41	0.17302038
7	0xbe0d2b85	-0.13786133
8	0xbe1a39f0	-0.15061164
9	0xbdb9a2fd	-0.09064291
10	0xbb7234ce	-0.0036957744
11	0x3d956b56	0.07295863
12	0xbd17d99e	-0.03707277
13	0x3b030b05	0.0019995582
14	0x3dc67e15	0.09692017
15	0x3e02f70f	0.12789558
16	0x3da8e1a1	0.0824616
17	0x3e0a1e93	0.13488226
18	0xbd3128f8	-0.04325196
19	0x3e3d6a80	0.18497658
20	0x3cd8a619	0.026446389
21	0xbd2c3417	-0.042041864
22	0xbdd4efea	-0.103973225
23	0xbc0881cd	-0.008331728
24	0xbb373b74	-0.002795902
25	0x3c741cee	0.0148994755
26	0xbb12bbcf	-0.0022389775
27	0xbdb72af0	-0.089437366
28	0xbd6d86ed	-0.057990003
29	0xbdb5df10	-0.088804364
30	0xbdf6cc7d	-0.12050722
31	0xbd95dd76	-0.07317631
32	0x3c027dc1	0.007964552
33	0xbd5c3c8f	-0.05376869
34	0xbd4511a1	-0.048112515
35	0xbe1f0608	-0.15529644
36	0xbd97ce94	-0.074124485
37	0xbe20807b	-0.15674011
38	0x3de6a81d	0.11262534
39	0x3c735332	0.014851378
40	0x3d26a919	0.040688608
41	0x3cd81306	0.026376259
42	0x3ddd38a6	0.108018205
43	0x3da6993f	0.08134698
44	0x3e208c10	0.1567843
45	0x3d95a1c6	0.073062465
46	0x3e04976b	0.12948386
47	0x3da93d7a	0.08263679
48	0x3cd934d5	0.02651445
49	0xbd9772fa	-0.07394977
50	0x3e108c97	0.14116131
51	0x3cc84159	0.024445223
52	0x3d659a1e	0.05605518
53	0x3d90f463	0.07077863
54	0xbca72119	-0.020401524
55	0xbdd5a8e4	-0.10432604
56	0xbbfbbd8f	-0.0076825093
57	0x3c2a7e4c	0.010406088
58	0x3db73dec	0.089473575
59	0xbd1ae7a3	-0.037818562
60	0xbdc1abd3	-0.09456601
61	0x3daf0336	0.08545534
62	0x3c804222	0.015656535
63	0x395dc74f	0.0002115045
64	0x3e006c69	0.12541355
65	0x3d340363	0.043948542
66	0xbe99bdb4	-0.30027544
67	0xbe208ddc	-0.15679115
68	0x3d6cd740	0.057822466
69	0xbdcd04e2	-0.10010697
70	0x3cd43379	0.02590345
71	0x3e134dc1	0.1438513
72	0xbd21d624	-0.03951086
73	0xbe125fb6	-0.14294323
74	0x3d0a8a1a	0.03382311
75	0xbd2c997e	-0.04213857
76	0xbe225d32	-0.15855864
77	0xbe42059f	-0.18947457
78	0x3d2fa67d	0.042883385
79	0x3d1f4de9	0.03889266
80	0x3e051357	0.12995659
81	0xbe38ef11	-0.18059947
82	0x3e4b6a1c	0.19864696
83	0xbe048520	-0.12941408
84	0x3d91ca14	0.071186215
85	0x3c51060e	0.012757791
86	0x3d52ee1c	0.05149661
87	0x3da857c3	0.08219864
88	0x3e5c22cc	0.21497649
89	0xbe0bc3fb	-0.1364898
90	0x3d4b457f	0.049626824
91	0xbddbed6b	-0.10738643
92	0x3c532065	0.012886141
93	0xbb9a0400	-0.004700184
94	0x3d9a29dc	0.07527515
95	0xbe0d9835	-0.13827594
96	0xbd552e34	-0.052046016
97	0x3d788c5b	0.06068073
98	0x3a1b8642	0.0005932787
99	0x3dd99513	0.10624137
100	0x3daabc4c	0.08336696
101	0x3d962d60	0.07332873
102	0xbc1c9342	-0.009556593
103	0xbe1b3d3e	-0.15160081
104	0xbd829145	-0.06375364
105	0xbe91f020	-0.28503513
106	0xbd9bd863	-0.07609632
107	0xbe02e688	-0.12783253
108	0xbd22cf17	-0.039748278
109	0xbe06a020	-0.1314702
110	0x3d34cd50	0.044141114
111	0xbdc321c7	-0.09527927
112	0x3da9e155	0.08294932
113	0xbe13da45	-0.14438732
114	0x3da08783	0.07838347
115	0x3d83ef30	0.06442106
116	0x3d946d16	0.07247369
117	0x3e088ef4	0.13335782
118	0x3dbd3753	0.09239068
119	0x3e13342a	0.14375368
120	0xbcc6c544	-0.024263985
121	0xbd14e04c	-0.03634672
122	0x3e2ff3d0	0.17182851
123	0x3e272e65	0.16326292
124	0x3db1eb87	0.086875014
125	0xbdc62b60	-0.09676242
126	0x3e239fd9	0.15978946
127	0xbd95e8db	-0.07319804
128	0xbd56ddce	-0.052457623
129	0xbd1ea532	-0.03873176
130	0xbd9a0f45	-0.07522444
131	0xbd2af411	-0.041736666
132	0x3daf0c94	0.08547321
133	0x3d3c93c5	0.04603936
134	0xbd36c9a6	-0.0446259
135	0xbca69c73	-0.020338273
136	0x3c624533	0.013810444
137	0xbd4ffe09	-0.050779376
138	0xb9a0a0f3	-0.00030637495
139	0x3d2c67ec	0.042091295
140	0x3d765945	0.060143728
141	0xbd3bea28	-0.045877606
142	0x3d4cc7a7	0.04999509
143	0xbc94f7ea	-0.01818462
144	0x3dbedf15	0.09319893
145	0xbd060efc	-0.032729134
146	0x3d891902	0.06694223
147	0xbd96a4a5	-0.07355622
148	0x3b8774a5	0.004133778
149	0x3d8ec428	0.069710076
150	0x3d69d0af	0.05708378
151	0xbd869139	-0.06570668
152	0xbd243212	-0.040086813
153	0xbd558d8f	-0.052136954
154	0x3d7d6a61	0.06186903
155	0xbd49b0fc	-0.04924105
156	0x3db70698	0.089368045
157	0xbd83dbe9	-0.06438429
158	0x3da3c5ab	0.079966865
159	0xbd58e8cb	-0.052956384
160	0x3d8042e6	0.0626276
161	0x3d8685ce	0.0656849
162	0xbd115455	-0.035480816
163	0xbd9090bf	-0.07058858
164	0x3d43399d	0.047662366
165	0x3d57373b	0.052542906
166	0x3d991b06	0.074758574
167	0xbd30f912	-0.043206282
168	0x3d65aa37	0.056070533
169	0xbd846980	-0.06465435
170	0x3d7aa969	0.06119672
171	0xbcaa1c04	-0.020765312
172	0xbd866f59	-0.06564207
173	0xbd850db3	-0.064967535
174	0x3d84da22	0.06486918
175	0x3c0d7640	0.00863415
176	0x3d5fb0b2	0.05461187
177	0x3c86caff	0.016454218
178	0x3d5911b5	0.052995402
179	0x3c9f0856	0.019413155
180	0x3d7e11fb	0.062028866
181	0xbda6d862	-0.081467405
182	0x3da81775	0.08207599
183	0x3d551685	0.05202343
184	0x3d9991c4	0.07498506
185	0x3c800085	0.015625248
186	0xbd97c34e	-0.07410298
187	0xbce2e56e	-0.027697291
188	0xbd80cba5	-0.06288842
189	0xbdabd215	-0.08389679
190	0xbdaae13b	-0.083437406
191	0x3d9041aa	0.070437744
192	0x3c29bce3	0.0103599755
193	0x3d8d9f66	0.069151685
194	0xbd83b07d	-0.06430147
195	0xbcc5fca8	-0.024168327
196	0x3d29b1b7	0.041429248
197	0xbc938288	-0.018006578
198	0x3cca133d	0.024667377
199	0xbd1f33d4	-0.038867787
200	0x3d73473b	0.059394103
201	0x3db64ffe	0.08901976
202	0x3d875c5d	0.06609414
203	0x3c474f21	0.012164862
204	0x3da368a6	0.079789445
205	0x3ce694df	0.02814716
206	0x3d0f4eed	0.03498738
207	0xbda4296c	-0.08015713
208	0x3c94111f	0.01807457
209	0xbd07d3c7	-0.03316095
210	0xbd904209	-0.07043845
211	0xbdb400f3	-0.087892435
212	0xbda12f87	-0.07870393
213	0x3d852c81	0.06502629
214	0xbd60e62d	-0.054907013
215	0xbce88e42	-0.028388146
216	0x3ccf81f7	0.025330527
217	0x3d6fc38d	0.0585361
218	0x3d8e9b51	0.06963218
219	0xbd9244a7	-0.07142001
220	0x3d2feeb3	0.04295225
221	0xbdb1fbc0	-0.086905956
222	0x3d9dd223	0.07706096
223	0xbcc90a88	-0.024541155
224	0x3cb53eaa	0.022124607
225	0xbd25a46a	-0.04044
226	0xbd94f764	-0.072737485
227	0xbc998efd	-0.01874494
228	0x3c6d82ed	0.014496547
229	0xbcf6a2c0	-0.030106902
230	0xbd024ed5	-0.03181346
231	0xbd0afcf9	-0.03393266
232	0xbd7d9d59	-0.061917637
233	0xbb774aea	-0.0037733861
234	0x3c20b2e8	0.00980828
235	0x3b8eb03d	0.0043545053
236	0xbd8656cc	-0.06559524
237	0xbd40a2ed	-0.047030378
238	0xbd28a77d	-0.041175354
239	0xbd59ed89	-0.053205047
240	0xbbeb98be	-0.007189839
241	0x3cfa4229	0.030549126
242	0xbd284557	-0.041081753
243	0xbd7f6ec5	-0.062361497
244	0x3d57f544	0.052724138
245	0xbd13de4f	-0.036100682
246	0xbd4fe5a8	-0.050756127
247	0x3cc641a1	0.024201216
248	0x3d4c7855	0.049919445
249	0xbd6a0009	-0.05712894
250	0x3d962f7a	0.07333274
251	0xbbd65c94	-0.006541798
252	0x3c115dec	0.00887249
253	0x3d856fd0	0.06515467
254	0x3d419359	0.047259662
255	0xbd403175	-0.046922166

bias f4 [64]
0	0xbcc50346	-0.024049412
1	0xbd954d1c	-0.07290098
2	0xbcbcc8d3	-0.02304498
3	0x3d6c39db	0.057672363
4	0x3d9f566f	0.07780158
5	0xbd2f0b53	-0.04273541
6	0x3cbcb11f	0.023033677
7	0x3c5240a7	0.012832797
8	0x3d41afb7	0.047286715
9	0xbd4dfcbe	-0.05028986
10	0xbcc384ed	-0.023867095
11	0xbbbb28b4	-0.0057116393
12	0x3da7e011	0.08197034
13	0xbd005c40	-0.031337976
14	0xbd79d39e	-0.06099283
15	0xbb9bd0c6	-0.0047551123
16	0x3ddc4961	0.107561834
17	0x3dec602f	0.11541783
18	0x3d488bad	0.04896133
19	0x3d4f4e95	0.05061205
20	0x3cb9bb90	0.022672445
21	0xba085422	-0.0005200525
22	0xbd31dc91	-0.04342324
23	0xbd8a1558	-0.06742352
24	0x3dc4d335	0.09610597
25	0x3db15167	0.086581044
26	0x3c25994b	0.010107349
27	0xbc0597af	-0.00815384
28	0x3cfb5d96	0.030684274
29	0x3d9b2474	0.07575312
30	0xbc2f7aea	-0.010710457
31	0xbd84f4ff	-0.06492042
32	0xbd6cdb54	-0.057826355
33	0xbc8b76d1	-0.01702443
34	0x3d19c85c	0.037544593
35	0xbca48989	-0.020085113
36	0x3d706b08	0.058695823
37	0x3d1bf0b7	0.03807136
38	0xbcac911c	-0.021065287
39	0xbd32a575	-0.043614823
40	0xbcc4952a	-0.023996908
41	0x3d823f27	0.063597016
42	0xbbf174d6	-0.0073686643
43	0xbcf23fb2	-0.029571388
44	0x3d768da6	0.06019368
45	0x3c052e93	0.00812878
46	0xbd18d630	-0.03731364
47	0x3d838308	0.064214766
48	0x3ccdf7dc	0.025142603
49	0x3de3141a	0.110878184
50	0xbdb4887b	-0.08815094
51	0xbd316589	-0.043309722
52	0x3d834da1	0.06411291
53	0xbce1aca7	-0.027548147
54	0xbd8ff985	-0.07030014
55	0xbd34d569	-0.044148836
56	0xbc8d4bf6	-0.017248135
57	0xbda4621c	-0.080265254
58	0x3aca4907	0.0015433141
59	0xbc9e9b08	-0.019361034
60	0x3d3d15fe	0.04616355
61	0x3cef15c2	0.02918518
62	0x3d7a369e	0.061087243
63	0xbbee16a6	-0.0072658835

weight f4 [10, 64]
0	0x3d92ac6c	0.07161793
1	0x3b892a1e	0.004185929
2	0xbbcb0bab	-0.0061964593
3	0x3d2f1555	0.042744953
4	0x3e899159	0.26868704
5	0xbe4443cb	-0.19166486
6	0x3e2adacf	0.16685031
7	0xbeb47f09	-0.3525317
8	0x3f04b467	0.5183777
9	0xbd1007de	-0.035163753
10	0x3d7bf44d	0.06151228
11	0x3e6875ae	0.22701141
12	0xbe534535	-0.20631869
13	0xbd78a193	-0.060700964
14	0x3e0802ca	0.13282314
15	0xbdf0948c	-0.11747083
16	0xbe1ee89f	-0.15518425
17	0x3d4607b9	0.04834721
18	0x3e3e3209	0.18573774
19	0x3e1ff503	0.15620808
20	0xbe80ebb6	-0.25179833
21	0xbe36cf71	-0.1785257
22	0xbd2e3d04	-0.042538658
23	0xbd61a421	-0.055088166
24	0xbda619da	-0.081103995
25	0xbd2b7285	-0.04185726
26	0x3e90e9ca	0.28303367
27	0x3e787ec1	0.24267103
28	0xbe3078da	-0.17233601
29	0xbeb517ea	-0.35369807
30	0xbcc81199	-0.024422454
31	0xbdd1c8c6	-0.102433726
32	0xbe37d1d1	-0.17951132
33	0x3f165a32	0.5873138
34	0xbe70cfbd	-0.23516746
35	0x3e683cdd	0.22679467
36	0xbe7ea9c1	-0.24869443
37	0x3eb1078c	0.3457607
38	0xbe232944	-0.1593371
39	0xbe6b612e	-0.2298629
40	0xbdae82ce	-0.08521043
41	0xbde6008b	-0.11230572
42	0x3f2c4380	0.67290497
43	0x3e1af136	0.15131077
44	0x3e497868	0.19674838
45	0x3e8fe14a	0.2810157
46	0xbdd04bc6	-0.10170703
47	0x3e932227	0.28736994
48	0xbe73de95	-0.23815377
49	0xbd2364d9	-0.039891098
50	0x3e8b51da	0.27210885
51	0x3e235f42	0.15954307
52	0x3ece45ea	0.40287715
53	0xbe202991	-0.15640856
54	0xbc2d7e38	-0.010589175
55	0xbdbb8a18	-0.09157199
56	0x3ddd4ab5	0.10805265
57	0x3e205183	0.15656094
58	0xbc0f00b0	-0.008728191
59	0xbeb75fde	-0.35815328
60	0xbe42fbb1	-0.19041325
61	0x3e7ebdb5	0.24877055
62	0x3dac44da	0.0841157
63	0xbd11c364	-0.03558673
64	0x3e45b972	0.19309023
65	0x3bdfc134	0.0068284515
66	0x3db542f9	0.08850665
67	0x3d133d96	0.035947405
68	0xbbdf51ed	-0.0068151862
69	0x3ee4ba39	0.44673327
70	0x3cdfc72e	0.027316656
71	0x3ea36bca	0.31918174
72	0xbe35ac58	-0.17741525
73	0xbe28d915	-0.1648906
74	0xbd9ffbaa	-0.07811673
75	0x3db88e5b	0.09011527
76	0x3eb12674	0.3459965
77	0xbe38b273	-0.18036823
78	0x3ddd4187	0.10803514
79	0x3d6ce280	0.057833195
80	0xbeb21316	-0.34780186
81	0xbea36ad2	-0.31917435
82	0x3e992033	0.2990738
83	0x3e243a1b	0.1603779
84	0xbde533ee	-0.111915454
85	0xbcb15f52	-0.021651898
86	0xbd922117	-0.07135218
87	0x3dca0bc8	0.09865528
88	0x3f12e4e8	0.57380533
89	0x3efd1111	0.49427083
90	0xbed0679b	-0.40704045
91	0xbe7a10b0	-0.24420428
92	0xbeebe0b8	-0.46069884
93	0xbdbb2c5e	-0.09139322
94	0xbd073def	-0.03301805
95	0x3d2bdc55	0.041958172
96	0xbdc4a307	-0.096014075
97	0x3a06ae0e	0.00051376305
98	0x3e583da8	0.2111727
99	0xbe8ec7d4	-0.27886832
100	0xbd491384	-0.049090877
101	0xbd883caa	-0.06652196
102	0x3d75b081	0.05998278
103	0x3dd08344	0.10181287
104	0xbdad8c49	-0.08474023
105	0x3bfefde8	0.007781733
106	0x3d0d83ae	0.034549408
107	0xbd98f465	-0.074684896
108	0xbe826ce1	-0.25473693
109	0x3d9ce67c	0.07661149
110	0x3f1626bf	0.5865287
111	0x3e662db0	0.22478366
112	0xbde9928e	-0.11404906
113	0xbdde73e8	-0.10861951
114	0x3b2a31e5	0.002596968
115	0xbd85c458	-0.0653159
116	0x3e41639e	0.18885657
117	0xbe6b1a65	-0.22959287
118	0x3e343c3a	0.176011
119	0x3d95cfac	0.07315001
120	0xbda4e593	-0.080516
121	0xbe8702c8	-0.2636931
122	0x3e18e339	0.14930429
123	0xbe53e14b	-0.20691411
124	0xbccc6f0d	-0.024955297
125	0x3b7b6d99	0.0038364886
126	0xbdb6dc99	-0.089287944
127	0xbea2801b	-0.31738362
128	0xbebe858c	-0.37211263
129	0x3d7260a9	0.059174214
130	0x3e291e01	0.16515352
131	0x3de0e276	0.10980694
132	0xbe4b8d40	-0.19878101
133	0xbe4da8f5	-0.20083983
134	0xbe6fe18f	-0.23425888
135	0x3f2029fd	0.6256407
136	0x3d97cbf3	0.07411947
137	0xbe05f295	-0.13080819
138	0x3dfbb046	0.12289481
139	0x3df96346	0.12177138
140	0xbe24194c	-0.16025275
141	0x3e4e299b	0.20133059
142	0xbdee628c	-0.1163989
143	0xbeca1747	-0.39470884
144	0x3e1906ea	0.14944044
145	0x3d414fac	0.04719512
146	0xbe506ffd	-0.2035522
147	0x3eedc634	0.4644028
148	0xbe5738a4	-0.210177
149	0xbe0f0a36	-0.13968739
150	0xbc71fb29	-0.014769354
151	0x3d4d67e0	0.05014789
152	0xbebb06ba	-0.3652857
153	0x3e83ffb3	0.2578102
154	0x3e544573	0.20729618
155	0xbed3f11e	-0.41394895
156	0x3edb15b8	0.42790008
157	0xbec8519a	-0.39124757
158	0xbe7d2e9f	-0.24724816
159	0x3e84d10e	0.25940746
160	0xbea628f1	-0.3245311
161	0x3eb0a254	0.34498847
162	0x3e4ea0a3	0.20178466
163	0xbdaae714	-0.08344856
164	0xbea15306	-0.31508654
165	0x3ea04328	0.31301236
166	0x3e4b6c78	0.19865596
167	0x3e6e2b18	0.23258626
168	0x3d305ec9	0.043059144
169	0xbcbb4b07	-0.022862924
170	0xbf0ad2c3	-0.54227847
171	0xbe8239c5	-0.254347
172	0xbd978ebe	-0.07400273
173	0x3e769a80	0.24082375
174	0x3d41445a	0.047184326
175	0x3d6d0879	0.05786941
176	0xbe407346	-0.18793973
177	0x3eb103fe	0.34573358
178	0x3decd109	0.11563308
179	0x3e9831fe	0.2972564
180	0x3e4bd5d6	0.1990579
181	0x3d2196c7	0.039450433
182	0xbdcb5903	-0.09929087
183	0x3ed04ed4	0.4068514
184	0x3c6b6040	0.0143662095
185	0x3df0992b	0.117479645
186	0xbd39ed79	-0.045392487
187	0xbdc41b5f	-0.09575533
188	0xbe0848ee	-0.1330907
189	0xbeccba86	-0.39986056
190	0x3cd94d5f	0.026526151
191	0xbdd26f79	-0.10275168
192	0x3e898be9	0.26864555
193	0x3da7d99e	0.08195804
194	0xbca3c672	-0.019992087
195	0xbdafa8c6	-0.08577113
196	0xbe911c41	-0.2834187
197	0x3e143b4b	0.14475743
198	0xbda4b328	-0.08041984
199	0xbe431d34	-0.19054109
200	0xbdf805f7	-0.12110513
201	0xbe2e1225	-0.16999109
202	0x3d903985	0.07042221
203	0xbe64905d	-0.22320695
204	0xbe18f557	-0.1493734
205	0x3e843dc8	0.25828385
206	0x3d89d996	0.06730954
207	0xbd8c8005	-0.06860355
208	0x3cbef2aa	0.02330907
209	0xbca71647	-0.020396365
210	0xbe5bf1d4	-0.21478969
211	0x3d0fcacd	0.035105515
212	0xbdcfc0ad	-0.10144172
213	0xbe602433	-0.21888809
214	0xbde75041	-0.11294604
215	0x3cfe494f	0.031040816
216	0x3e8cdbbf	0.27511403
217	0x3d6aebff	0.05735397
218	0x3e63bd17	0.22240101
219	0x3e98fc50	0.2988
220	0x3e9c444f	0.30520865
221	0x3ebf2722	0.37334543
222	0xbd9fb392	-0.07797922
223	0xbd44c518	-0.048039526
224	0xbd272304	-0.040804878
225	0xbee246f3	-0.44194755
226	0xbe86a961	-0.263011
227	0xbe4f022f	-0.20215677
228	0xbc38255e	-0.011239378
229	0xbe7ac2da	-0.24488392
230	0x3d9e238e	0.07721625
231	0x3eb0ae87	0.34508154
232	0x3d89e851	0.06733764
233	0x3e077f8e	0.13232252
234	0x3e529408	0.20564282
235	0xbb63d853	-0.003476639
236	0x3e2cc13b	0.16870587
237	0xbec38c0e	-0.3819279
238	0x3e3f775e	0.18697879
239	0x3e03c900	0.12869644
240	0x3d9da9d4	0.07698408
241	0xbeb72b0f	-0.3577504
242	0x3e20119c	0.15631717
243	0x3d9a3972	0.07530488
244	0x3dd0d7dd	0.10197423
245	0x3efa7408	0.4891665
246	0x3e1fd383	0.15608029
247	0xbe7fab6a	-0.24967733
248	0xbe2e4bd1	-0.17021109
249	0x3ed98c89	0.42490032
250	0xbd8804f8	-0.06641573
251	0xbdd89c74	-0.10576716
252	0x3ea7aa29	0.3274701
253	0xbe668d9a	-0.22514954
254	0xbea9956d	-0.33121815
255	0xbe0a98a4	-0.1353479

bias f4 [10]
0	0xbe0b815a	-0.13623562
1	0xbd920767	-0.07130318
2	0x3d0ed58d	0.034871627
3	0xbd145d5b	-0.036221843
4	0xbdcef41a	-0.101051524
5	0xbd8f218b	-0.0698882
6	0x3d845615	0.06461731
7	0xbd96d18a	-0.07364185
8	0x3e515d6a	0.20445791
9	0xbb5d9ab4	-0.0033814134
